model/model.pth (torch, 16787 bytes, 4 tensors)

linear1.weight f4 [256, 11]
000000 2e c4 2e be d9 9d 83 3e 82 04 c6 3e a6 a7 45 3c
       -0.17067024 0.25706366 0.38675314 0.012063896
000010 2e c1 96 3d 5a a3 78 3d 76 59 d9 be a9 6a db 3c
       0.07361065 0.06070266 -0.42451066 0.026784258
000020 12 c8 07 3e 59 d2 01 be 85 ba 8d 3e 8a f7 21 3f
       0.13259915 -0.12677898 0.27681366 0.6326834
000030 4b 32 01 3f 6d 24 bc be e0 49 75 bd c4 05 c3 bd
       0.50467366 -0.3674654 -0.059884906 -0.09522584
000040 92 a0 4d be 27 0f d3 bd 86 25 0e 3e 9c 77 84 3e
       -0.20080784 -0.103056245 0.13881502 0.25872505
000050 b7 24 8a 3e fd c5 58 3e cf 8b 1f bf b8 34 03 be
       0.26981136 0.21169277 -0.62322706 -0.1281308
000060 8d ed d7 3e 49 95 05 be 0a e1 6b bd 3b cc 2d bb
       0.42173424 -0.13045229 -0.05758766 -0.0026519436
000070 92 da a8 bd 81 81 2b 3e 17 dc 0c 3e 09 01 35 3e
       -0.08244814 0.1674862 0.13755833 0.17676176
000080 65 7e c8 3d 56 f7 19 be aa 92 1a 3f 8b 6b 2d 3e
       0.09789733 -0.15035757 0.6038004 0.16935556
000090 25 9b 21 3e d0 00 c9 bd bd 01 21 bd f7 5b 73 3e
       0.15781839 -0.09814608 -0.0393083 0.2376555
0000a0 de ac 02 3d 99 e6 ae 3e 2c 75 cc 3b b5 70 a0 3e
       0.03190314 0.34160307 0.006239554 0.3133599
0000b0 94 4c df 3e 6f 80 c4 3e 5c c5 42 bd 41 6f d5 3d
       0.43613112 0.38379237 -0.047551498 0.104216106
0000c0 2c 6a 32 be cf 37 95 3c 28 4c 0a be fe ef 35 3e
       -0.17423314 0.018215088 -0.13505614 0.17767331
0000d0 bb e2 c0 3c b0 27 58 be 23 20 e5 3a 21 52 83 bd
       0.023545614 -0.2110889 0.0017480891 -0.06412149
0000e0 c2 8e 11 bd 6a 33 94 3c 7f 17 55 be fc ac ca be
       -0.035536535 0.018090922 -0.20809744 -0.39585102
0000f0 b1 e3 16 3e 38 22 73 3e 44 a0 15 3e 63 82 83 3e
       0.14735295 0.23743522 0.14611918 0.25685415
000100 aa 7d a5 be 1b 95 b8 be ae a5 83 bd e9 e8 f8 3d
       -0.32322437 -0.36051258 -0.06428085 0.12153799
000110 d6 db ee bd cb b7 29 be 48 b0 99 be 72 b5 35 be
       -0.11663024 -0.16574018 -0.30017304 -0.17744997
000120 cf 58 89 bd 26 2a 06 3e e0 1d a7 3d cc 88 99 bd
       -0.06706392 0.13102016 0.08159995 -0.07496795
000130 94 67 47 3d d7 77 07 be d5 a8 4b be 87 37 1c be
       0.048682764 -0.13229309 -0.19888623 -0.15255557
000140 5e 07 c7 3d d8 b2 5d 3d dd ff 1b be 34 d5 75 3e
       0.09718202 0.054125637 -0.15234323 0.24007112
000150 45 60 6b be 04 7a d4 3d eb fe ad be ff 6e 4e be
       -0.22985943 0.10374835 -0.3398355 -0.20159529
000160 1b c8 2b be 2a 0f c7 3e 58 8c 47 3e 05 50 99 bc
       -0.16775553 0.38878757 0.1948713 -0.018714914
000170 22 1e 14 3e 69 34 92 be 28 69 50 be 16 c3 a9 be
       0.1446462 -0.2855561 -0.20352614 -0.3315665
000180 86 59 9d bd 81 36 41 3d bd df 5d 3e 00 08 c6 3e
       -0.07683091 0.04717112 0.2166738 0.3867798
000190 12 a0 8d 39 12 6f 07 3f 6d bb 2c be ba 12 09 3d
       0.00027012877 0.52903855 -0.16868372 0.033465125
0001a0 e9 2b d4 bd 83 55 1f be 33 40 60 3e 55 1e 89 be
       -0.10359938 -0.15559964 0.2189949 -0.26780954
0001b0 e3 54 6d be 63 ce 61 3e b3 38 5d 3e 24 60 00 3f
       -0.23176913 0.22051387 0.2160366 0.501467
0001c0 ac 0a c1 be 66 9f 83 3e ac 88 7a 3d ef 20 e8 bd
       -0.37703454 0.2570755 0.061165497 -0.113344066
0001d0 72 ae 4d bc e1 f5 9b be e2 9c 61 3e dc 91 45 3e
       -0.012553798 -0.30461028 0.22032502 0.19293922
0001e0 df 47 d9 3d ae 2d 0e be 36 a1 fd bd 89 3d 4a 3e
       0.106094114 -0.13884613 -0.12384264 0.19750036
0001f0 0e 1e d9 3d 90 da 70 3e 2b 54 f2 bd f4 f0 de 3d
       0.106014356 0.23520875 -0.1183246 0.10885802
000200 a8 d2 03 3d 16 c1 a2 be 1f f2 c0 3e a5 14 1e be
       0.03218332 -0.31787938 0.37684724 -0.15437563
000210 e6 49 c2 be c5 4b 85 3e 0a b1 cf 3e 7a cd ea bd
       -0.37947005 0.2603437 0.40564758 -0.11464973
000220 08 df 6c 3e 5b d4 05 3e 94 1c e3 3d de 39 54 be
       0.23131955 0.13069288 0.11089435 -0.207252
000230 ef 13 5f 3e b7 eb d5 3d 6d a8 38 3e de 0d bd be
       0.21784948 0.1044535 0.18033 -0.36924642
000240 ff 6b c5 3e 97 b3 23 be cf e5 de 3d 97 74 78 bd
       0.38558957 -0.15986477 0.10883676 -0.060658064
000250 23 7b 83 3d a6 11 3e be c3 01 6f be 3a 9c d6 bd
       0.06419971 -0.1856142 -0.23340516 -0.104790166
000260 82 47 8f be b3 37 3a be 4f 63 a4 bd ad 63 4a 3e
       -0.27984244 -0.1818531 -0.08026754 0.19764586
000270 9f ac 99 be 6e 87 54 bc 6a 1f e7 bc 89 52 a5 be
       -0.30014512 -0.012971742 -0.028213222 -0.32289532
000280 45 38 e9 bd 27 10 f6 3d d1 46 9c 3e ec 6c 0e 3e
       -0.11387686 0.120147996 0.3052278 0.13908738
000290 73 16 91 3e da 37 1e 3d 22 91 39 be d8 77 6a bd
       0.2833744 0.038627483 -0.1812177 -0.0572432
0002a0 d0 1c 0a bd 67 d3 aa bd af 8c a1 3e 6d 79 15 be
       -0.033718884 -0.08341103 0.31552646 -0.14597102
0002b0 d5 3c 62 3d 75 b1 48 be 20 50 4d 3e b7 0e 36 3e
       0.055233795 -0.19598944 0.20050097 0.17779051
0002c0 f3 93 10 3f 91 2d 0c bf 7f c4 d8 be 11 e7 63 3e
       0.5647575 -0.5475703 -0.42337415 0.22256114
0002d0 c3 50 5f be fb 17 ec 3d f9 dd 04 3e 8c 7b 49 be
       -0.21808152 0.115280114 0.12975301 -0.19676036
0002e0 6c a2 96 3d af 01 a2 3d e0 9f 8a bd 46 07 a0 be
       0.07355198 0.07910477 -0.06768775 -0.3125555
0002f0 86 e1 41 3e 92 ea 0a 3f dc 98 39 3e 89 58 b3 3e
       0.18933687 0.54264176 0.18124717 0.35028484
000300 2b 36 9e 3d 7d e5 c1 3d fb 31 44 be 07 07 45 3e
       0.077251755 0.094675995 -0.19159691 0.19240962
000310 a0 25 41 be b4 3f ad be e8 6e b0 bc 7a 30 18 be
       -0.18862009 -0.33837664 -0.02153726 -0.14862242
000320 81 3b bf bc 4d cf d3 3d 30 99 05 bd be 2c 92 3c
       -0.023343803 0.10342274 -0.032616794 0.0178436
000330 3e ae bb bc b6 d6 33 be e0 f4 6e 3e af a7 6b bd
       -0.022910234 -0.17562374 0.233356 -0.057532962
000340 46 7b 93 be d3 f1 99 be 98 1f 00 3f c8 37 aa be
       -0.28804988 -0.3006731 0.5004821 -0.33245683
000350 a3 39 4e 3e 47 d9 1a be 85 59 86 3d 61 90 19 3b
       0.20139174 -0.15121947 0.06560043 0.0023432004
000360 87 68 50 3e 9a 2a 34 bd d7 8f 7e 3e 29 e0 63 be
       0.20352374 -0.04398594 0.24859558 -0.22253479
000370 38 44 c6 3e 92 b4 a8 be 01 7a 87 3e 2f ab 72 be
       0.38723922 -0.32950264 0.2646027 -0.23698114
000380 5b 23 9b bd b8 e2 6b bd 2e 7e 0b 3d 98 cb 12 3d
       -0.07575103 -0.057589263 0.03405588 0.035838693
000390 be e8 08 be 29 a6 5c 3e 15 8f e3 3d a8 17 02 be
       -0.13370034 0.2154776 0.11111275 -0.12704337
0003a0 f3 5c 7d 3e e1 d0 f5 3e 00 7f 3f 3e 68 8e 80 bd
       0.24742489 0.48010924 0.1870079 -0.06277162
0003b0 5a e4 a0 3e b2 2d 48 3d b5 7a d5 3c d3 4a 24 3e
       0.31424218 0.048871703 0.026059488 0.16044168
0003c0 14 3b 16 3e b9 26 3e be 2b 89 96 ba d6 0c ad be
       0.14670974 -0.18569459 -0.0011484971 -0.33798856
0003d0 69 ca e1 3e f8 23 ef be 90 19 4b 3d 45 e1 cc 3d
       0.4409974 -0.4670713 0.049584925 0.10003904
0003e0 12 74 24 3e df 03 0c be 73 ee 19 3e 13 1f ec 3d
       0.16059902 -0.13673352 0.15032367 0.115293644
0003f0 16 a5 d6 bd a9 e0 10 bf 0d 12 a9 3e 29 1e 3e be
       -0.104807064 -0.56592804 0.33021584 -0.18566193

linear1.bias f4 [256]
000000 2c 22 14 3e 1e 36 13 be c1 04 c9 3e 88 6e 45 3e
       0.1446616 -0.14376113 0.3926144 0.19280446
000010 5c 52 cb 3d e1 0e cc 3d d3 ad 76 be 56 e0 3e be
       0.09927818 0.099637754 -0.24089746 -0.18640265
000020 7b a9 0d be 15 f0 99 bd d5 9d ef bd 3b 13 5c be
       -0.13834183 -0.07516495 -0.11700026 -0.21491711
000030 1f 85 9b bd 4f fc bf 3d 39 b0 38 be 50 cd 5c be
       -0.0759375 0.09374296 -0.18035974 -0.21562696
000040 8b 20 c5 3b 40 a8 7a 3c b0 a9 ac be f1 68 69 be
       0.0060158423 0.015298903 -0.3372321 -0.22793938
000050 64 80 56 3e df 3a aa 3e 32 78 4c be 07 a8 fa bc
       0.20947415 0.3324804 -0.19967726 -0.0305977
000060 61 77 d4 bd 5c c1 86 3e f6 93 98 be 2d ad 9e 3d
       -0.10374332 0.26319396 -0.29800385 0.077478744
000070 a9 9f bf bd 4c e8 33 be cd 02 29 bd 46 ba b7 bd
       -0.09356625 -0.17569083 -0.041262437 -0.08971076
000080 88 f5 5c bd 47 34 6a be d8 8f 6b bc ac 55 31 bc
       -0.053945094 -0.22871505 -0.014377557 -0.010823648
000090 0d 91 6d 3d e3 81 30 be 53 a0 39 bd 0c 4e 75 bd
       0.05799966 -0.17237048 -0.045318913 -0.059888884
0000a0 ae 4c 74 bc 7a 13 68 be 9c a5 ce 3d 8c d4 9a be
       -0.01491086 -0.2266368 0.10090181 -0.30240285
0000b0 92 4d 87 3e 0a ed 84 3d 28 a1 70 be 15 26 3a 3e
       0.2642637 0.06490524 -0.23498976 0.1817859
0000c0 6b 6a 63 bd ff 79 67 be 6e 36 34 be 30 48 01 bd
       -0.05552141 -0.22605132 -0.17598888 -0.031562984
0000d0 eb ee 09 3d 97 3d 0f 3d 58 bf 61 bc 57 6b b4 be
       0.033675116 0.034970846 -0.01377853 -0.35238144
0000e0 08 c4 35 3e a0 b6 bf be d2 1e e0 3c 9a 59 da 3d
       0.17750561 -0.3744402 0.027358446 0.106616214
0000f0 bc 30 d5 bd 90 57 35 3e db 7c 8b bd e5 e4 12 be
       -0.10409686 0.17709184 -0.06810924 -0.14345129
000100 de 48 97 be 51 98 9b bd ba ed 15 3e 02 56 04 be
       -0.2954778 -0.075974114 0.14641467 -0.12923434
000110 2b 0f af 3d 4d 4d ca be ad 9b a2 bc 55 8d b7 3e
       0.08547815 -0.395121 -0.019849623 0.35850015
000120 56 ca 38 be 93 fe 9e 3d 4f d3 cb 3d e1 45 f3 3d
       -0.18045935 0.077634 0.09952413 0.11878563
000130 d7 b9 97 be 26 20 08 be 08 0f 22 3e 99 42 30 be
       -0.29633972 -0.13293514 0.15826046 -0.17212905
000140 b7 eb e1 bc c1 ee 17 be 44 aa 98 be 95 51 85 3e
       -0.027578218 -0.14837171 -0.29817402 0.26038805
000150 f4 6c 5f bb fa 1b 8a bd f3 1e 24 be 19 07 16 be
       -0.003409204 -0.06743617 -0.16027431 -0.14651145
000160 e8 b7 4f 3e 6d a9 39 be 53 01 a0 bd 73 83 2c 3d
       0.20284998 -0.18131037 -0.078127526 0.042117547
000170 5b fa 80 be fd ed 7c be 0d 92 bb 3c be 04 6a bb
       -0.25191006 -0.2470016 0.02289679 -0.0035708393
000180 02 33 2b 3e cf 17 43 be eb 39 39 3d 5e 35 a7 3d
       0.16718677 -0.19052051 0.04522125 0.08164476
000190 e5 6c 07 bd 6e 68 1b be 4d fa 38 3e d9 10 cf 3c
       -0.033062834 -0.15176556 0.18064232 0.025276588
0001a0 35 64 82 3c 4f 9d 95 be 82 ab 0e be 71 b5 f3 bc
       0.015916923 -0.2922158 -0.13932613 -0.029749604
0001b0 d9 03 8b 3e 83 fd 9c bd 28 d3 99 3e 63 ac ea 3d
       0.27151373 -0.07665541 0.30043912 0.114586614
0001c0 20 91 b3 be 76 19 8d be f9 08 f0 bd a9 aa 3a be
       -0.3507166 -0.27558488 -0.117204614 -0.18229164
0001d0 ee ab 51 3e 43 54 fe 3d 0e b6 3e bd 8c 91 01 be
       0.20475742 0.124184154 -0.04656034 -0.12653178
0001e0 66 d9 85 be 98 4c e8 bd ee 58 0b 3c 51 71 5f 3d
       -0.26142424 -0.11342734 0.008505089 0.054551426
0001f0 4e e8 18 be ab fc ac be 1a 04 06 bc a4 ac 71 bc
       -0.14932367 -0.3378652 -0.008179689 -0.014750633
000200 5a 5b 29 3d 0d 3f b9 be 79 0f cd 3d 76 cc d1 bd
       0.041346885 -0.36180916 0.10012717 -0.10244076
000210 8b ae 33 3e 91 74 67 bd 71 d2 03 be b6 96 1e be
       0.17547052 -0.05650765 -0.12873246 -0.15487179
000220 53 79 54 3e ca 52 44 3d 8d df 82 3d fc 30 e6 3d
       0.20749407 0.047930516 0.06390295 0.11239812
000230 db 43 b4 bc 34 0f dc bd bc 8c ee bd 6d 99 63 be
       -0.022005012 -0.10745087 -0.11647937 -0.22226496
000240 da 0a 75 3e f3 49 a3 bc 56 05 1c bd 37 6c 81 be
       0.23929921 -0.019932723 -0.038091026 -0.25277874
000250 1a 85 48 3d 6a 3b 85 be da 0b 01 bd 97 22 97 3d
       0.04895506 -0.26021892 -0.031505443 0.07379644
000260 36 ee 78 3d 8b bf 65 3d 2f 73 95 bd dd 49 4a be
       0.06077405 0.056090873 -0.0729736 -0.19754739
000270 1b 2c be bd 3a fd ad 3e ea 87 9c be 77 19 bb 3d
       -0.09285756 0.3398226 -0.30572444 0.091357164
000280 13 d7 55 3d 76 1a f1 3d 52 d8 80 be 89 2a 86 be
       0.052207064 0.11772625 -0.2516504 -0.26204327
000290 1b 56 ca bd 1f 02 50 bd 4b 48 2c be f5 4d 2c 3e
       -0.098797046 -0.050783273 -0.16824453 0.16826613
0002a0 f8 4d 93 3e 47 40 a7 bd eb 08 86 be 82 52 2e be
       0.28770423 -0.08166557 -0.2617868 -0.17023662
0002b0 73 c4 81 3d 91 b4 11 3e 83 b2 86 be fe 89 11 3c
       0.06336298 0.14229037 -0.2630807 0.008882998
0002c0 b5 42 c2 3e 76 b0 a6 3d bd 1f 79 3d b9 79 89 3c
       0.37941518 0.08139126 0.060821284 0.016781675
0002d0 cf db a1 3d 0b 9c ed 3d 29 43 56 be 8c 5e 30 3e
       0.07903253 0.116020285 -0.20924057 0.17223567
0002e0 a4 f9 21 be f8 e4 b5 be ec fb 60 be cd e6 48 be
       -0.15817887 -0.35526252 -0.219711 -0.19619294
0002f0 6a 2e fd 3d 1e fa 77 be 42 85 bb 3e bc 68 a1 bd
       0.123623684 -0.24216506 0.36625105 -0.078813046
000300 8b 26 82 3e 8e 1f 4d bd 81 03 82 bd 7c 6e a2 be
       0.2542003 -0.05007892 -0.063483246 -0.31724918
000310 92 7f 01 3e b2 e3 23 bd 14 29 ce 3e 78 60 40 be
       0.1264632 -0.04001207 0.40265715 -0.187868
000320 ff 1d b4 bd 70 35 a0 be a7 ff 5d 3c 4a ac 1a be
       -0.08794784 -0.3129077 0.013549722 -0.15104786
000330 5b eb 03 be 94 53 12 be 41 ba c9 bd 23 a6 12 bd
       -0.1288275 -0.14289695 -0.09849978 -0.03580297
000340 0c d2 0b ba 9e b7 a7 be bd f1 5e be 05 5b 1d be
       -0.00053337286 -0.32757276 -0.21771903 -0.15366752
000350 a8 e0 32 be 93 44 26 3e ee fb 17 be 03 d0 0f be
       -0.17468512 0.16237096 -0.14842197 -0.14044194
000360 a4 42 89 3d e7 dd da bc b5 f7 c2 3e db 89 35 3e
       0.06702164 -0.02671714 0.3807961 0.17728369
000370 69 b9 93 bd 5f 34 59 be d9 57 1f be f6 12 df 3d
       -0.072130986 -0.21211384 -0.15560855 0.108922884
000380 44 5d 60 3e fa 51 98 be b7 01 2e be 27 de a0 bd
       0.21910578 -0.29750043 -0.16992842 -0.07854872
000390 9b 89 90 3d 13 ed 2c be e1 4a 18 3d fa f5 0e bd
       0.07057496 -0.16887312 0.037180785 -0.03490255
0003a0 67 b6 08 3d 04 fa d8 bd 3a f4 7d 3e 98 06 29 be
       0.033377077 -0.10594562 0.24800196 -0.16506422
0003b0 33 2a 25 bd 2d 59 0a be 9f 97 19 be 1a 6b 0e 3e
       -0.040323447 -0.1351058 -0.14999245 0.13908044
0003c0 18 6f fd bd df 1f 81 3e d8 8a 1d 3e 3d 4a 7b be
       -0.12374705 0.25219628 0.15384996 -0.24540038
0003d0 01 65 99 be 1c 16 a9 bc 36 5e 51 be 6a c9 2f 3e
       -0.29959872 -0.020640425 -0.20446095 0.17166677
0003e0 4b 43 55 bd 7b 2a 8b 3d c9 23 38 be 53 6a 1e 3e
       -0.05206613 0.06795212 -0.17982401 0.15470247
0003f0 39 84 07 3d 86 15 bf 3d 19 71 0a 3e fa 4c d1 3d
       0.03308508 0.09330277 0.13519706 0.1021976

linear2.weight f4 [3, 256]
000000 16 e4 1b 3b 48 b5 9f be 9e 89 34 3e 50 80 bc bc
       0.0023787073 -0.31192994 0.17630622 -0.023010403
000010 15 f6 c3 bc 76 d3 89 be 76 39 47 3d 78 96 b4 3a
       -0.023921052 -0.26919144 0.048638783 0.0013777753
000020 dd 58 b4 bd bd 92 e4 bd ff 52 b9 bd 04 0e 14 be
       -0.08806012 -0.111608006 -0.090490334 -0.14458472
000030 e7 85 d8 3d b2 3e 76 3c 57 f9 8e bd a8 e0 39 3e
       0.10572415 0.015029596 -0.069811516 0.18152106
000040 1b 49 3b bd f6 a3 c1 3d 45 5a 08 ba 04 5d 3e 3e
       -0.045724016 0.09455101 -0.00052014395 0.1859017
000050 70 cf d1 bc 64 c9 19 3d 67 09 3f bd a3 18 a4 be
       -0.02561161 0.037545577 -0.046639826 -0.32050046
000060 91 05 fc bd 73 be b1 bb b8 02 f0 bd 88 a9 e0 bd
       -0.12305749 -0.0054243146 -0.117192686 -0.109698355
000070 de 7c 8e bc 77 06 97 3c fd 0f 11 be ea 74 29 3c
       -0.017393526 0.0184357 -0.14166255 0.010342816
000080 18 83 eb bd 47 47 c8 bd 31 a2 8e bd a2 e1 db 3a
       -0.114996135 -0.0977922 -0.06964529 0.0016775618
000090 9d f6 9d 3e 8f a6 4c bd 9c 55 35 be 6b 8f 8a bd
       0.30852214 -0.04996353 -0.17708439 -0.06765636
0000a0 90 a4 d1 bd 17 e5 6b be 67 b1 b0 bd 9b 86 77 3c
       -0.10236466 -0.2303661 -0.08627587 0.015107776
0000b0 ae 88 2c 3e 4b e5 13 be 9b 4f 03 be c3 18 88 3d
       0.16849014 -0.14442937 -0.12823336 0.06645348
0000c0 cf 59 b9 bc 33 6f 84 3d 8f 7a 4b be 79 30 0e be
       -0.022625832 0.06466522 -0.19870971 -0.13885678
0000d0 6b 16 ca bd 16 44 83 bb 2b 9e 92 3d 0c fa 09 3e
       -0.09867557 -0.004005919 0.071590744 0.13474292
0000e0 48 40 1a 3e 02 1f 9f 3d 04 ca 27 be d5 43 fd 3d
       0.15063584 0.07769586 -0.16385657 0.123664536
0000f0 79 19 50 bd 98 4e 64 bd df 05 b2 bd f0 3a 33 be
       -0.050805543 -0.055739015 -0.08692526 -0.17502952
000100 5b db 66 3c bb 75 13 3e dd 76 eb 3d ba 77 36 be
       0.014090384 0.1440038 0.11497281 -0.1781911
000110 3e 2b 80 bd 20 f9 0d be d3 f9 f5 be 81 3c 87 3e
       -0.06258248 -0.13864565 -0.48042163 0.26413348
000120 a2 ee 47 be df 00 56 3e 22 dc aa be 54 dd 14 be
       -0.19524625 0.2089877 -0.33371073 -0.14537555
000130 0c ff 0a be 68 af 55 bd fd 8b e1 3c 96 ec ef bd
       -0.13573855 -0.052169234 0.027532572 -0.11715047
000140 bb f3 3d 3e 67 ef b1 be ce 7e 1c be 1d be 4b 3d
       0.18550007 -0.34752962 -0.15282747 0.049741853
000150 68 08 83 bd 37 f3 22 be db 95 72 be f9 de 39 3e
       -0.06398088 -0.15913092 -0.23689978 0.18151464
000160 01 3b 0b 3e 4d 56 25 3e 10 6a 2a bd 92 75 bd bd
       0.13596727 0.16146202 -0.041605055 -0.092509404
000170 99 db 34 bd 2d 52 4d be 48 f6 2f bd a7 0f a8 3d
       -0.044154737 -0.20050879 -0.04295948 0.082061104
000180 05 6a 21 3d 23 8f 13 be 12 14 a3 bd e3 e6 8d bc
       0.03940775 -0.14410071 -0.079628125 -0.01732201
000190 61 19 c2 bd 6e 06 b0 bd dc cb 43 bd 0c 20 13 bc
       -0.09477497 -0.08594976 -0.047801837 -0.008979809
0001a0 82 cb 34 3e 18 e1 2b bb df 5c 15 bd e8 a3 fd bc
       0.17655757 -0.0026226696 -0.036465522 -0.030961946
0001b0 3c cd 3a 3e 14 ef 25 3d d1 d2 48 3e de 49 1a 3d
       0.18242353 0.040511206 0.1961167 0.0376681
0001c0 9b 6c e8 bc 28 46 31 bd 43 5d 30 3e b6 95 20 bc
       -0.0283721 -0.043279797 0.17223077 -0.009801319
0001d0 84 06 b9 3d 96 65 8b 3d 5a 74 09 be 60 9f 02 bd
       0.09034446 0.06806485 -0.13423291 -0.031890273
0001e0 3e c4 76 be 6c ba a1 3d 11 2b df bd 4e 6d d4 bd
       -0.24098298 0.07896885 -0.10896886 -0.10372411
0001f0 9c 4e cb 3d db 85 56 3b a0 39 3f 3b 0c 0a a8 bd
       0.09927103 0.0032733593 0.0029178634 -0.08205041
000200 e8 fb 7f 3e 98 67 f4 bc 03 80 7f be c6 f4 44 3e
       0.24998438 -0.029834554 -0.24951176 0.19233999
000210 8c ef aa 3d f4 a0 b5 bd 64 82 d5 3c 90 06 0d bd
       0.08346471 -0.0886859 0.026063152 -0.034430087
000220 9d e8 0a 3e 7f 41 25 3e 07 c0 94 bd e7 2a 4e bc
       0.13565297 0.16138266 -0.07263189 -0.012583471
000230 aa 54 fc bd cc 21 81 be 22 85 2d bd b2 d5 39 3e
       -0.12320836 -0.25221097 -0.042363293 0.18147925
000240 4b 81 93 3e 67 33 8c 3d 9f 69 32 be 74 65 2b be
       0.2880958 0.06845742 -0.17423104 -0.1673792
000250 1e d8 0b be 21 72 f9 bd 73 cd 3e 3c 9e 3b 29 bd
       -0.13656661 -0.121799715 0.011645663 -0.04131662
000260 ef 5b 72 3e 08 73 80 be 20 6d 9e be 1c 4d 6b be
       0.23667882 -0.25087762 -0.3094263 -0.22978634
000270 ae 34 13 bd b6 f2 c7 3d 29 d8 1f bc 7e 18 2c be
       -0.03593891 0.0976309 -0.009756126 -0.16806218
000280 6e fb ce bd 9f 2f 9e 3d f5 f6 53 bc 72 1d 0b 3e
       -0.1010655 0.07723927 -0.012937297 0.13585451
000290 64 b9 d0 be 20 b6 81 bd ce 26 88 bd 89 03 56 bd
       -0.40766442 -0.06333566 -0.066480264 -0.052249465
0002a0 7f f6 cd bc 14 c0 33 3e 6b 5a cf 3c 19 68 f3 bd
       -0.025141953 0.1755374 0.02531167 -0.118850894
0002b0 7e 18 98 3c f9 ee b4 bd 9f eb 01 3d d2 3f a5 bc
       0.018566366 -0.08834643 0.031718846 -0.020172033
0002c0 de 7f 39 3e 3a 77 16 3e b7 a8 3f bc d7 a2 00 be
       0.18115184 0.14693919 -0.01169794 -0.12562118
0002d0 fe f8 54 be 25 10 77 be 61 f2 14 3e b0 59 37 3d
       -0.20798108 -0.24127252 0.14545585 0.044763267
0002e0 35 1b 49 be 78 cf 4c 3c c3 c2 e6 3d c3 dc f3 bd
       -0.19639285 0.012500636 0.112676166 -0.11907341
0002f0 af 5f 18 3e 80 71 2b bd 1d 9a 9d 3e c8 8c 2e 3e
       0.1488025 -0.04185629 0.30781642 0.17045891
000300 7e b0 8b bd dc 1a 75 bd 87 09 a4 bd 20 fb 7a 3d
       -0.068207726 -0.05984007 -0.0800963 0.061274648
000310 93 e9 8e ba fd 4a 19 bd 7d dd 4b 3e bd ee 53 3d
       -0.0010903351 -0.03742503 0.1990871 0.05174135
000320 b6 a0 a7 3e 8f 0d 82 bc 2c 4c 0a 3d 6a dd a5 be
       0.327398 -0.015875606 0.03376405 -0.32395488
000330 c5 50 48 be cb 09 25 3e 39 8f 3d 3d 98 45 d2 bc
       -0.19562061 0.16117017 0.046279166 -0.02566795
000340 f9 28 e8 bd c3 f9 e7 3b ba 90 fb bc 9c ee 3e 3e
       -0.1133594 0.0070793345 -0.03070866 0.1864571
000350 7e 2e f0 bd c7 21 2a be c6 ff 23 3e 3a 23 76 bd
       -0.11727618 -0.16614448 0.16015539 -0.06009219
000360 38 a4 1e be 4a 80 3c be d4 63 23 3e 65 ca 81 bd
       -0.15492332 -0.18408313 0.1595605 -0.06337432
000370 05 a7 13 3e 2a 1c 8e be 37 17 08 bd e7 6d 99 bd
       0.14419182 -0.27755862 -0.033225264 -0.07491665
000380 3a 4d 74 3d 6c 8d 05 be 1b d9 59 be d0 0f e0 3c
       0.05964396 -0.1304223 -0.21274225 0.02735129
000390 4a 22 ba bd 9b 14 36 be ff 50 fa bd 62 54 a6 bd
       -0.09088571 -0.17781298 -0.1222248 -0.081215635
0003a0 93 30 1c be 2a 3a f4 bd 4c 22 5d 3d 4a ec 3b be
       -0.15252905 -0.119251564 0.053987786 -0.18351856
0003b0 e5 81 f6 bc 75 50 12 bd bb 10 08 be fb 88 48 3e
       -0.030091235 -0.03572126 -0.13287632 0.19583504
0003c0 fc c7 f5 bd a0 a2 71 3d 8f 26 b8 3d ae 01 26 bc
       -0.120010346 0.058992982 0.089917295 -0.010132236
0003d0 10 0f 04 3e a8 03 22 be 7d 4d 33 3c 99 9f e7 bd
       0.12896371 -0.15821707 0.010943768 -0.11309738
0003e0 0b bc d7 3d 5e e6 6b bc 2c af b0 3c 93 f6 85 3b
       0.10533913 -0.014398186 0.021567903 0.004088232
0003f0 0f ab a2 3d 6c 7b be bc 20 72 a5 bd a3 85 a9 3c
       0.07942783 -0.023252212 -0.08078408 0.020693606

linear2.bias f4 [3]
000000 12 9b 10 3d 4d 66 cc bd 24 98 02 be
       0.035304137 -0.0998045 -0.1275335
